example/models/detect.tflite (tflite, 70948 bytes, 4 tensors)

sequential/dense/MatMul/ReadVariableOp/transpose f4 [1, 128]
000000 71 3d 52 be 58 a3 68 be 14 19 14 bc 6d e1 d6 3d
       -0.2053125 -0.2271856 -0.009039182 0.10492215
000010 6e ec 46 3e 88 4d 51 bc ee 8d 30 be ff c7 55 3f
       0.19426128 -0.012774833 -0.17241642 0.83508295
000020 19 d4 ab bd 8f f4 01 bf 92 a7 d4 3e 51 ec 5c 3e
       -0.08390064 -0.5076379 0.41534096 0.21574523
000030 8b da 73 3f c2 ab 05 3e ad 26 56 bd 00 74 27 be
       0.95255345 0.13053802 -0.052282978 -0.16352844
000040 ef 7f 6c 3d 13 ae 12 3f ad 11 bc bd b7 ae 99 3d
       0.057739194 0.57296866 -0.09183059 0.07504027
000050 24 95 29 3e b0 e3 70 bd a0 48 53 be eb 43 14 3e
       0.16560799 -0.05881089 -0.20633173 0.14479034
000060 4a a5 58 3d 6d d2 36 3f f9 bb d9 bd b6 33 60 bf
       0.052892007 0.71414834 -0.10631556 -0.87578905
000070 01 78 1d bf 6b 94 17 3f 0b 5b 28 bb c8 75 9c 3c
       -0.61511236 0.5921084 -0.0025689031 0.019099131
000080 8c fd e6 3e 28 44 28 3e b2 69 21 3f 1f d2 99 3e
       0.45115316 0.1643225 0.63051903 0.30043122
000090 e0 d0 3a bf d9 d9 a1 be ed f7 06 bd ec 57 c0 3e
       -0.7297497 -0.31611517 -0.032951284 0.3756708
0000a0 4b 4e 61 3f ea 80 8d 3e 92 a7 f4 be 68 e8 70 3e
       0.8801009 0.27637416 -0.47784096 0.23526156
0000b0 27 b7 26 bf 73 45 c1 3b a0 bd d7 3d 76 75 9f 3d
       -0.6512322 0.0058981716 0.10534215 0.07786076
0000c0 04 02 c9 be 5f d7 3f bd 3f ca 01 3e 0d 00 bb bd
       -0.3925935 -0.046836253 0.12674807 -0.09130869
0000d0 77 87 89 bf b2 97 43 3f 0e 83 cc 3e 31 63 29 3f
       -1.0744466 0.76403344 0.39943737 0.6616698
0000e0 cb eb e0 3e b8 4b 92 bd cd 12 c3 be 30 9f 99 bf
       0.43929896 -0.071433485 -0.3810028 -1.2001705
0000f0 24 32 aa 3c fa 25 79 bc 8f 65 4f 3f 26 87 81 3f
       0.020775862 -0.015206808 0.8101434 1.0119369
000100 46 6e b3 be 48 e0 35 be 61 75 7a 3b 56 31 24 bf
       -0.3504507 -0.17761338 0.0038216936 -0.6413778
000110 ef d9 8b 3e 64 a5 08 bc 2b 19 98 3e 3b dd c6 39
       0.27314708 -0.008340213 0.29706702 0.00037930332
000120 ae 68 38 3e 11 f6 ac be 1b 76 97 3e ac 46 46 3d
       0.18008682 -0.33781484 0.29582295 0.04840724
000130 a8 1f 8f be 2c 35 55 3d 7c dc 15 be b5 23 17 3e
       -0.2795384 0.05205266 -0.1463489 0.14759715
000140 3c fd 15 bf 01 67 21 bf 3f 07 9b be 0b 7f 8e 3f
       -0.5858953 -0.63047796 -0.30278966 1.113252
000150 d5 95 b7 3e 8a 51 50 bf bd de 7b 3f dc 57 32 3e
       0.358565 -0.8137442 0.98386747 0.17416328
000160 96 2b 29 3f 30 62 95 be 38 da 43 3e 7b b6 99 3c
       0.6608213 -0.29176474 0.19126213 0.018763771
000170 f5 e7 28 3f 88 a1 1e be 2f 3e 1b bd 47 ea 63 3d
       0.6597894 -0.15491307 -0.0379011 0.055643346
000180 3b 81 d9 bd a2 64 4f 3d 30 8c 3c be 6d 97 16 3d
       -0.10620352 0.05063308 -0.18412852 0.036765505
000190 ce 68 fa bd 3e ae 82 be dd 1c 36 bf b5 02 bc bb
       -0.12227021 -0.2552356 -0.7113779 -0.0057376274
0001a0 0d 53 31 bd 6a 8a 20 3d 5c de b0 3d 2c 36 ef 3e
       -0.043292094 0.039194502 0.08636162 0.46721017
0001b0 8c ef bb be 07 72 b2 3d 79 2f 9f bc ba f3 80 3d
       -0.36706197 0.08713155 -0.019431816 0.06296487
0001c0 57 3f ab 3e 84 1a 96 3e 7e 6f ab bd 34 e0 35 bf
       0.33446762 0.29317105 -0.08370875 -0.7104523
0001d0 f2 18 05 3e 8b d2 b1 bd 4a f9 28 3f 35 50 91 3e
       0.12997797 -0.08682736 0.66005385 0.28381506
0001e0 8b 35 2c bc 85 44 3e bd c8 9d 67 3e dd 4a 12 3f
       -0.0105108125 -0.046452064 0.22618783 0.5714548
0001f0 97 ca 37 be 62 8b eb be 6b 71 e8 be 54 10 ab 3d
       -0.17948376 -0.46004778 -0.4539903 0.08352724

sequential/softmax_attention/MatMul/ReadVariableOp/transpose f4 [128, 128]
000000 3c 3b fb 3d d0 20 bb 3d 25 25 21 3d 0f ab 35 bd
       0.122671574 0.09137118 0.039342064 -0.044352587
000010 33 d7 9a 3d 1f 6c 33 3e 9c 15 a6 3c e3 36 03 3d
       0.07560577 0.17521714 0.020273976 0.032034766
000020 50 cb c4 3c 9f 15 05 be 7a 77 20 3d 28 67 d9 bb
       0.024022728 -0.12996529 0.03917644 -0.0066346116
000030 f8 47 35 3e d2 5a 89 3d 9a 1b 60 3d 5f 0c 95 bd
       0.17703235 0.06706776 0.054713823 -0.0727775
000040 29 7c c3 3c 5e 4e e6 bc 12 c3 2d bc bb 22 e9 3b
       0.023862915 -0.02811354 -0.01060559 0.007114736
000050 e5 ed 59 be 8b d4 30 3a 4c ac b4 bc ae 84 6c 3d
       -0.21282156 0.00067455386 -0.022054814 0.05774372
000060 0b de f6 bc c0 49 0f bb 81 a2 86 bd cc b0 9d 3b
       -0.030135175 -0.0021864027 -0.06573964 0.0048123356
000070 02 4a 71 3d 0a f7 10 3e 18 77 bb 3c 5b 4b cb 3c
       0.05890847 0.14156738 0.022883937 0.024816206
000080 b3 b8 d0 3c 99 9a 84 bd e1 7d 94 3a fc 44 9a bb
       0.025478696 -0.064748 0.0011329019 -0.0047079306
000090 41 4f e1 3c 5b f8 04 3e e0 87 db 3d 98 6e b9 3a
       0.027503612 0.12985365 0.107192755 0.0014147339
0000a0 82 55 2c 3d 88 c3 91 bc 64 6e 1a be 1f f1 78 3d
       0.042073734 -0.017793432 -0.15081173 0.060776826
0000b0 71 21 63 bd 2b c3 0b 3d dc 16 79 bd 8e 52 33 3d
       -0.055451814 0.034121674 -0.060812816 0.043779902
0000c0 68 f0 53 3d 58 b8 03 bd b2 6f aa 3d e2 80 17 3c
       0.05174294 -0.032158226 0.083220854 0.009247037
0000d0 32 3b 99 bd bb 4a d5 3d 3a 39 85 3e 23 17 c5 bc
       -0.07481994 0.10414644 0.26020223 -0.024058884
0000e0 8c 36 52 bd 55 84 5b 3d ca c4 bc 3d 1f 02 90 bc
       -0.05132155 0.053593 0.09217222 -0.017579136
0000f0 c4 b4 ba bc f8 2e d5 3c e0 eb 2f bd 7a d2 37 bc
       -0.022791274 0.026023373 -0.042949557 -0.011219615
000100 f2 f6 5c bc 2a 60 41 3c e3 a8 3a bd 09 2e 4c 3c
       -0.013486611 0.011802712 -0.04557122 0.0124621475
000110 82 cd d3 bd 79 1c e1 bd 11 f4 83 3c 80 5a 83 3c
       -0.10341932 -0.10991759 0.01610759 0.016034365
000120 a4 b0 2e bc 15 38 02 3d c4 ff 2b bd 60 d4 bc bd
       -0.010662232 0.031791765 -0.041991964 -0.09220195
000130 97 b4 7d 3d 84 8d 4e 3c 8c 04 7b bd 98 1a 80 3d
       0.061939802 0.012606982 -0.061283633 0.06255072
000140 6b 16 b2 bd 19 c3 42 bd 49 a6 59 bd 27 03 b4 3d
       -0.08695682 -0.04754934 -0.053137098 0.08789664
000150 b5 c7 05 bd 1c 3e c9 bd 55 bd dd bd 47 7d e2 3c
       -0.03266116 -0.098262995 -0.10827128 0.027647628
000160 df 3f 78 3d bf 0c 9a 3b 77 e2 e8 3d 27 a4 32 3e
       0.060607787 0.0047012265 0.1137132 0.17445432
000170 af 46 02 bd 34 ed 8a 3b 61 7c 9e 3d 90 9e ee 3c
       -0.03180569 0.0042397026 0.07738567 0.029128343
000180 bc a9 31 3d 33 51 a5 3c 59 a7 55 3d 54 94 30 3d
       0.043374762 0.02018032 0.05216155 0.043110207
000190 73 6a f6 3d 04 db 52 bd 31 19 4a bd 5c bf 6b 3d
       0.12032022 -0.0514784 -0.04934043 0.05755554
0001a0 03 af 85 3d 78 e4 38 be 22 5f ba 3c f6 6e 09 bc
       0.065275215 -0.18055904 0.022750441 -0.008388272
0001b0 c7 df 27 bd 97 44 0e bd 74 c2 e5 3d e0 47 0f bd
       -0.040984895 -0.03473338 0.112187296 -0.034980655
0001c0 55 7b 5f 3d ed 74 98 3d 8b be 54 3d 80 9b 15 3d
       0.054560978 0.07444177 0.05193953 0.03652525
0001d0 58 6f ef bc 81 95 04 bc 7b df 12 bb a8 fb 65 3d
       -0.029227898 -0.008092285 -0.0022411037 0.0561482
0001e0 f8 c3 64 bc 01 ca 25 bd 1f 90 b8 3d ff d7 cf 3d
       -0.013962738 -0.04047585 0.09011864 0.1014862
0001f0 a5 3e 08 3e 7c d1 83 bd 7e 48 62 bd fa c2 8a bc
       0.13305147 -0.0643644 -0.055244915 -0.016938675
000200 47 09 93 3d 12 39 b7 3c ad de 6b 3c d2 6f 74 bb
       0.07179504 0.02236608 0.014396352 -0.0037298095
000210 7d b8 4a bc ab 61 b8 3d 31 63 81 3d 1c a9 a2 bb
       -0.012373087 0.09003004 0.063177474 -0.004964007
000220 db 7c d8 3d e1 3c b5 bd 7f 56 a1 3c af 34 84 3d
       0.10570689 -0.08849502 0.019694565 0.06455361
000230 75 9b b3 3d 9d 7d 30 bc 8e 27 50 bb 0c 11 2f be
       0.087698855 -0.010772136 -0.0031761858 -0.17096347
000240 b9 e8 2e bc b0 07 ac bc b9 8a c8 bc 70 ad ca bd
       -0.010675603 -0.02099976 -0.02448021 -0.09896362
000250 78 09 2c be 57 4d 16 bd 1e 49 b5 bd ff 36 8b bd
       -0.16800487 -0.03669485 -0.088518366 -0.06797599
000260 b9 c7 a5 bc 09 fb 1d 3c 29 1a 39 bd b4 f1 8f bc
       -0.020236837 0.009642371 -0.045190964 -0.017571308
000270 be 67 28 3d 61 ab 33 3e b6 27 a3 3c a4 93 0f bc
       0.04111456 0.17545845 0.019916397 -0.008763228
000280 46 a7 88 3b df a9 37 3d 24 af 6e bd 91 79 87 bd
       0.004170331 0.044839736 -0.058272496 -0.06614984
000290 71 26 69 3c 1a 55 54 3e 10 a6 32 3e 96 28 18 3d
       0.014230357 0.20735589 0.1744616 0.03714808
0002a0 00 bf 1e 3c d8 cc 36 3c c7 51 0b be 67 db 68 ba
       0.009689093 0.011157237 -0.13605414 -0.0008882791
0002b0 82 b2 fd bd cf 46 df 3d e6 fe a7 bd b9 20 2c bc
       -0.12387563 0.109021775 -0.08202915 -0.010505849
0002c0 42 04 8f 3c bd 44 1a 3d 84 f9 8e bd d7 ce bf 3c
       0.017458085 0.03766321 -0.06981185 0.023414059
0002d0 3a 78 36 bd cd 7c 09 3e f4 e9 96 3d 34 30 b5 3d
       -0.04454825 0.13426514 0.07368842 0.08847085
0002e0 82 82 7e bd 14 fc 10 3d 33 9c da 3d 78 50 6f bc
       -0.06213618 0.03539665 0.10674324 -0.014606588
0002f0 47 94 12 3d c7 e6 09 3d e9 82 11 3d 83 2d c1 ba
       0.03578594 0.033667352 0.035525236 -0.0014738295
000300 49 d0 8d bd 65 a8 6c bc f2 5f 7b bd 60 f4 98 bd
       -0.06924493 -0.014444445 -0.061370797 -0.07468486
000310 0f 86 1f bc e3 42 91 bd d2 dc 99 3d 32 ea 20 3d
       -0.009736552 -0.07092836 0.07512821 0.039285846
000320 6b a9 af bd ff b0 15 3e a6 16 bb bc c7 28 08 bc
       -0.08577236 0.146183 -0.022837948 -0.008310503
000330 71 c7 2b 3d 5c d2 83 3d 11 61 92 bd e1 c3 14 3d
       0.04193825 0.06436607 -0.0714742 0.036319617
000340 62 66 82 bd ae d3 37 bd 17 6d c8 bd f5 c5 93 3d
       -0.06367184 -0.044879608 -0.09786432 0.07215492
000350 de 2e 14 bc ef 51 ad bc 20 c8 8c bc 2f 86 81 3c
       -0.009044377 -0.021157233 -0.01718527 0.015811054
000360 6b 01 90 3c 40 10 c0 3c e8 03 2a 3d 08 9e fe 3d
       0.017578801 0.023445249 0.04150763 0.12432486
000370 db e1 59 bb 0b 7e 85 3d b6 94 f4 3d ec b4 5d 3d
       -0.0033246193 0.065181814 0.11942427 0.05412762
000380 f9 5f f2 3d 0f 83 5d bd f2 de 93 3c 2a 35 8e 3d
       0.118347116 -0.054080065 0.018050645 0.06943734
000390 c2 e8 fd 3d a8 d3 97 3c f7 0e 05 3d 84 ee 96 bd
       0.12397911 0.018533543 0.032484975 -0.07369712
0003a0 5c b3 c1 3d 36 34 23 be 57 79 5e 3d f2 04 61 bd
       0.09458038 -0.15937886 0.054314937 -0.054936357
0003b0 03 2e b4 3b ea 1d c1 3c 6f 76 b6 3d 58 38 bd bd
       0.005498649 0.023573834 0.08909308 -0.09239262
0003c0 37 db dd bc 86 32 dc 3c da 8c 2d bb 20 c9 1e bc
       -0.027082069 0.02687956 -0.002648166 -0.009691507
0003d0 e3 e4 ac bd a3 8d 51 3d 63 a4 e1 bc e7 43 9d 3d
       -0.08442094 0.051160466 -0.027544206 0.07678967
0003e0 b4 34 a4 3c 0d 15 4a 3d 62 78 f1 3d f7 ea 1c 3c
       0.020044662 0.04933648 0.11790539 0.009577504
0003f0 4f a0 12 3e ef 67 22 bc 06 ba 24 3b 7b 5d af bc
       0.14318965 -0.009912475 0.0025135293 -0.02140688

sequential/softmax_attention/MatMul_1/ReadVariableOp/transpose f4 [1, 128]
000000 a9 e8 08 bf 46 ac f2 be ca d1 13 3e e4 ab 16 bf
       -0.5348001 -0.4739706 0.14435497 -0.58856034
000010 64 76 ac be 3a 66 58 3f cd 24 8b 3f e0 b2 e1 be
       -0.33684075 0.84530985 1.0870606 -0.44081783
000020 0c 60 56 bf ae ba 64 bf af 97 c7 3e b9 f2 12 bf
       -0.83740306 -0.8934735 0.38982913 -0.57401615
000030 13 3f 1a 3f 30 09 12 3f 32 e0 30 be 80 6d 55 bf
       0.60252494 0.5704527 -0.17273024 -0.8337021
000040 9f e6 fa be c9 88 1c 3f 32 50 02 bf b3 a5 32 3e
       -0.49004075 0.6114622 -0.5090362 0.17446022
000050 b7 05 2c bf d3 c1 59 bf 68 d7 00 3f 70 23 ed 3e
       -0.6719622 -0.8506138 0.50328684 0.463161
000060 d2 f7 5e bf 09 0f f1 3e 5f 8b c4 be f6 e8 1f 3f
       -0.87096894 0.47081783 -0.38387582 0.62464845
000070 1f b7 10 3f 69 37 e1 be a9 18 84 3e cc 28 0d bf
       0.5652942 -0.43987587 0.25800064 -0.55140376
000080 90 00 cc be 2a 4d 80 bf 06 ce 24 3f 05 62 45 bf
       -0.3984418 -1.0023549 0.64376867 -0.7710269
000090 d4 7f 1e bf db ed fa 3e 46 76 3b 3f a8 a5 1e bf
       -0.619138 0.49009594 0.73227346 -0.6197152
0000a0 9e e0 6d bf 31 b9 57 3f f4 10 2e 3f 72 bc a0 3e
       -0.92920864 0.84266955 0.6799462 0.31393772
0000b0 39 4c 9e be 0c b0 90 3f 08 05 f6 3d 99 b6 4f bf
       -0.30917528 1.1303725 0.120126784 -0.81137997
0000c0 a7 2a 57 3f 0d 2b 13 bf c3 59 08 3f e3 06 2a bf
       0.8404946 -0.57487565 0.53261966 -0.6641676
0000d0 df 44 06 3f f5 8e 28 bf 73 56 09 bf 1b 39 49 bf
       0.5244884 -0.65843135 -0.53647536 -0.7860276
0000e0 86 7b 0d be 94 25 71 3f 32 dd 87 be 32 81 25 3f
       -0.13816652 0.94197965 -0.26535946 0.6465026
0000f0 74 44 17 3f 95 5d 69 3f e6 a5 3a 3f 0c af 30 3e
       0.59088826 0.9115842 0.7290939 0.17254275
000100 9b 93 67 3f 16 da 87 bf 48 b3 32 bf 3c 40 13 3f
       0.90459603 -1.061343 -0.6980481 0.5751989
000110 df f4 06 bf ef 4a d6 3e 3e cf 05 3f d7 4f 3a bf
       -0.52717394 0.41854045 0.5226935 -0.72778076
000120 d3 6e 42 be 2c b6 70 3e 86 b9 5f 3e 57 65 c6 3e
       -0.18987589 0.23506993 0.21848115 0.3874919
000130 0d 90 b1 3e 4e e3 2d 3e 71 b6 ed 3e 39 e8 36 3f
       0.34680215 0.16981241 0.46428254 0.71448094
000140 2e f1 5a 3f 60 54 1c 3f 7b ad ff be 57 95 40 bf
       0.8552426 0.61066246 -0.49937043 -0.75227875
000150 34 5e 19 bf a4 f7 15 3f 15 fe 2f 3f b3 21 d0 3e
       -0.5990937 0.58580995 0.68747073 0.4065071
000160 11 05 e9 be da 4b 56 3f b1 d1 58 3f a5 07 91 bf
       -0.45511678 0.8370949 0.84694964 -1.1330458
000170 e3 b9 1a 3f d9 f5 e0 3c d0 28 f0 3d 41 80 d7 be
       0.6043989 0.02746098 0.11726534 -0.42090037
000180 55 a8 dd be 08 84 91 be cd c8 d5 bd 7a 5c 27 be
       -0.4329249 -0.28421044 -0.1043869 -0.16343871
000190 95 b0 12 3f 5a 8a 30 3f d0 ea 12 3f 5a e3 ad bd
       0.5730069 0.6896111 0.57389545 -0.084906295
0001a0 43 2b 0e 3f be f9 bd 3e a0 bb 45 bf a1 a5 62 bf
       0.5553476 0.371046 -0.7723942 -0.8853398
0001b0 47 85 34 3f 92 ed 29 bf ee 37 70 3f 60 ab ec 3e
       0.70515865 -0.6637813 0.9383534 0.462245
0001c0 34 2a 82 bf 10 5c 3b 3f 1f 8b 9b be 61 fb 4d bf
       -1.0169129 0.7318735 -0.30379578 -0.804617
0001d0 30 96 ae be 72 bc 15 3f 10 23 a0 be a6 77 14 3f
       -0.3409896 0.5849067 -0.3127675 0.5799507
0001e0 7d 52 44 bf 4a a3 0d bf ca e6 e6 be 6d b2 39 bf
       -0.7668837 -0.55327284 -0.45097953 -0.7253788
0001f0 ff 79 0c bf db 2c 37 3f f9 e5 bc be d0 5c 2c bf
       -0.5487365 0.7155282 -0.36894205 -0.6732912

sequential/softmax_attention/MatMul_bias f4 [128]
000000 9e 99 98 3a 94 0a 7c 39 cb 8c 41 ba 30 9b 8f 39
       0.0011642461 0.00024036533 -0.00073833455 0.0002739071
000010 b0 47 ed b9 21 d9 8b b6 2b 9a 47 ba 9b ea 9e b9
       -0.00045257574 -4.1678e-06 -0.00076142204 -0.00030310903
000020 f6 cf 17 3b 21 1e d7 38 4c a4 f9 b8 35 1f 10 3a
       0.0023164726 0.00010257611 -0.00011903848 0.0005497814
000030 b5 ed 80 b9 5a 7e ef 37 77 fa f9 38 32 ee b7 38
       -0.00024591168 2.8549857e-05 0.00011919898 8.770487e-05
000040 3e 3a 08 ba ff 4e 6d 3a a4 3f 7a ba fb 4b 0f 39
       -0.0005196667 0.0009052604 -0.00095462264 0.00013665848
000050 50 40 e5 3a 0d 43 0a 3a 24 ff 73 38 e4 94 c7 39
       0.001749048 0.00052742736 5.8173333e-05 0.0003806717
000060 87 83 37 ba 1a bf 78 39 a2 69 8e 39 b1 e6 25 39
       -0.0007000495 0.00023722314 0.00027163053 0.00015821565
000070 c7 e1 ae b9 c6 db e9 39 e8 59 20 b8 e1 46 3c ba
       -0.00033356083 0.00044604967 -3.8230704e-05 -0.00071821926
000080 5b ea 91 39 f3 11 15 3b 45 76 1a 3a da a1 04 3a
       0.00027831164 0.0022746294 0.00058922573 0.0005059518
000090 6f ae ca b9 04 eb 0c 3a 9f 16 fa 39 90 45 32 38
       -0.00038658406 0.0005375596 0.0004770057 4.2503292e-05
0000a0 b5 dc 16 ba 01 1d 9a ba 64 81 5f 39 2d 3d b3 ba
       -0.0005754934 -0.0011757911 0.00021315139 -0.0013674848
0000b0 21 b6 e9 38 8d f5 51 3a 5c f0 eb ba b9 14 fc 3a
       0.0001114423 0.0008009307 -0.001800071 0.001923225
0000c0 82 35 26 bb 83 b5 27 3a 75 ba eb ba cf 32 5c ba
       -0.0025361483 0.0006397592 -0.0017984646 -0.0008399905
0000d0 7b ab 5b b8 6c b6 d2 39 f2 d0 72 3a ed 81 6e 3a
       -5.2373372e-05 0.00040190236 0.00092627027 0.000909834
0000e0 c9 c1 84 39 74 21 fe ba 2b 21 eb b9 41 82 02 39
       0.00025321383 -0.0019388632 -0.00044847405 0.0001244629
0000f0 da 7b 1a bb 6d 9a ad b9 3d 2c 7a ba d7 85 14 b7
       -0.0023572356 -0.00033112188 -0.0009543335 -8.852649e-06
000100 7e 69 47 ba e9 6b b7 3a fd 56 e2 b8 dd e1 2c ba
       -0.0007606967 0.0013993952 -0.000107927226 -0.00065949355
000110 34 28 0a 3b 2a 1f 43 3a 14 fd b9 b9 7e 8c d0 3a
       0.0021081092 0.00074433035 -0.00035474508 0.001591101
000120 a4 7d cd 3a c9 c5 a8 38 3d 6c 9c b9 e3 8a 9d 36
       0.0015677703 8.0477046e-05 -0.00029835282 4.695133e-06
000130 0f 8b 50 b9 4d 43 1f 3a 43 f8 a1 38 7a 66 af b9
       -0.00019888229 0.0006075397 7.7233206e-05 -0.00033454952
000140 79 e7 db b8 9a 47 0a 3a 28 da 41 ba 30 0d 82 39
       -0.00010485849 0.00052749517 -0.00073948735 0.00024805358
000150 62 08 91 3a ac 6b 0a 39 dd 73 c1 ba 59 27 9f b9
       0.001106512 0.00013200816 -0.0014759261 -0.0003035616
000160 59 51 7a ba 43 34 9c ba 95 c9 2b ba 90 29 ca 39
       -0.0009548865 -0.0011917431 -0.00065531704 0.0003855941
000170 e5 d3 10 ba ac ed f1 39 66 39 80 b6 df 93 46 ba
       -0.0005524739 0.0004614418 -3.8213793e-06 -0.0007575135
000180 bd b8 6a ba c4 7f 85 39 ac a7 fc ba 07 e7 ce b9
       -0.000895392 0.0002546293 -0.0019276044 -0.0003946351
000190 2f 51 47 3a 85 4a de 39 fa a6 24 ba c4 ca a2 3a
       0.0007603345 0.0004239866 -0.0006280985 0.0012420048
0001a0 a8 12 23 3a cc de ab b9 bd b3 6a b9 6c 3f 01 b9
       0.00062207365 -0.00032781658 -0.00022382937 -0.00012326025
0001b0 0d 1e 89 39 9a 5c 3b 3a 0e 3c da ba d8 c5 ed b9
       0.00026153066 0.00071472826 -0.0016649978 -0.00045351568
0001c0 f5 01 01 ba 23 f2 05 b9 27 78 ae 3a b8 ca c6 b9
       -0.0004921251 -0.00012774071 0.0013310955 -0.0003791654
0001d0 30 55 a5 39 6a 3f 18 3a 09 f1 38 ba da 3e 8f 39
       0.00031534722 0.0005807789 -0.000705496 0.00027321914
0001e0 44 54 59 3a 47 e9 df b9 01 e1 fa b7 a3 a3 63 ba
       0.00082904496 -0.0004270768 -2.9907098e-05 -0.00086837466
0001f0 61 27 b4 3a e5 81 64 37 cc d8 37 39 53 35 8e 3a
       0.0013744646 1.3620102e-05 0.00017533003 0.0010849632
