example/models/encode.tflite (tflite, 264980 bytes, 4 tensors)

gru/MatMul/ReadVariableOp/transpose f4 [384, 40]
00000000: aa78 5b3d 8bd0 87bd b6ab 9abb 1db3 03be
00000010: 41ca 913d d536 95bd 0a4d 43bd 5f11 75bc
00000020: 333d b1bd 7cd0 993c a4dc 883c d18a e13c
00000030: 7953 91bb 0143 bb3a f2cb d63d 807f 22ba
00000040: 6c1d 05bd 01f4 d53d 5f3d 05bd 8613 fa3d
00000050: b455 56bd 0c78 473d 239b 883d 8c5d d13d
00000060: 7844 f73d 8d29 b23c 55ea 033e 7c41 b2bc
00000070: 7a30 bf3a 1dcb 7bbc a827 06bd ae13 77bd
00000080: 39bd d43b 1890 713c 37c7 81bd 04a1 bdbc
00000090: 78d9 213e b9e6 0ebd b495 e93d 6233 65bd
000000a0: 9aae 6cbc d16f f13d 9dbe eabb ab9f ee3b
000000b0: 1c60 3cbc c1a4 ff3d 1f58 1bbd 6d78 12be
000000c0: 1ff4 36bd 3108 993d d3e5 503d e980 9abd
000000d0: e8a2 dd3d c2c3 3e3d f941 67bc ed88 f7bd
000000e0: aabc 25be 3c3b 9cbd cac6 203d e384 39bc
000000f0: 07df d43d c92d 5a3d ea08 0d3d 526d f13d
00000100: 6cfe 5fbc 8555 f93d 05cd 54bc 2680 babc
00000110: 7b4c 3cbd 7fae fb3c be31 463d 0c93 f93d
00000120: eaa0 983c 8a8d 013d c950 423d ebdc 91bc
00000130: 5bb2 bc3b 7af2 63bc 9fc0 a53d eb80 33bc
00000140: dd45 b7bd c8b0 73bd 1751 07be 3af1 f2bb
00000150: c2b9 b63c e889 9fbd 4278 e5bd 8db1 03be
00000160: 5a48 843d ef3d b43d 9d23 813d 3336 66bd
00000170: 3db0 1b3d d20e d63a 41a6 ac3d 4b78 e03b
00000180: 208b 66bc 0471 263e a00f 2f3e 28bc 123e
00000190: 7bb1 2c3e 95dc 033e 5796 db3d 02f1 f8bc
000001a0: ea13 6f3d 0839 b23d babf 45bd 3ae1 5abd
000001b0: f222 653d 3323 1b3d 86fd b3bd 9284 343d
000001c0: 612f 8e3c 3d90 edbc 8e05 25bd cc66 cbbd
000001d0: 65b4 12be 4b93 02be 3b42 38be 6763 7ebd
000001e0: acce f93d d66e 633e 362e 543b 2925 3b3e
000001f0: 02a2 c53b 7366 0fbd 8f28 1bbd 1bdf fd3d
00000200: 51e9 db3d 4c12 af3d 034b 40bb 4af7 ddbc
00000210: d60e 1f3d 0623 8ebd 67d2 093e b97a 923d
00000220: 2c5c 45bc a8b9 403d 9c0b b23d 12b8 b0bd
00000230: c654 b6bd aea4 293d a7a9 83bd 8668 fc3d
00000240: 9548 9dbc 5da8 063e bf7d 273e 08ab 01bc
00000250: fdeb 86bd f1b7 d33d 09a7 83bd f490 d0bb
00000260: 0632 adbd bc51 43bc 5112 cdbd fcb3 8f3d
00000270: ea5e dcb9 068d b1bd a019 31be 0415 c9bd
00000280: b137 0ebe 0ffa 0dbe 934e 1cbe 6b45 20bd
00000290: 4c71 29be 069a 1cbc 65d3 7dbd da28 32be
000002a0: 0d12 58bd 778f dabd e19f 0dbe 5bf3 523d
000002b0: ced6 76bd 1c87 bb3d 9f1c 3ebd 07c3 673d
000002c0: fd9c f23d f316 883d ae3b af3d 6200 213d
000002d0: d182 0ebd d061 1dbd e220 7b3c f735 7e3d
000002e0: b23f 8b3d 491d 70bc 230e 463d 5bff 893d
000002f0: f9b3 13be 35f5 6f3d d8cc 233c 88f2 e53d
00000300: 53d1 70bc 1fce a4bc 4cb9 153e 3389 99bb
00000310: 8eac e63d 7174 1b3e e2ce cc3d 0e04 673d
00000320: 9d7c cebc d848 d2bd 023e b1bd 5cb2 183c
00000330: 0994 d4bd 98f8 e7bd dc0b d53d 266b f53d
00000340: ef4c f53d 4460 bd3d e867 de3d fa58 663d
00000350: f555 db3d eeda 173c 85e4 003e 9da4 103a
00000360: 9fb2 993d a19c c33d ddb6 be3d e0ff 983d
00000370: 18e4 703d ef01 d63d 3075 943c 709b ac3c
00000380: a6ba b7bd c7a4 c0bd 92cc adbd ebfd b13d
00000390: 6a29 c23d 1bdc ce3c e17e b33b 1778 b73b
000003a0: d979 113d 98e3 143d 31f1 e13c efbf 7abd
000003b0: df8f f53c 0ade 3f3d ac56 39bd b864 913d
000003c0: d3f9 013b 06fc b0bc 2da3 ff3c 6b28 99bc
000003d0: 1035 fe3b cf3a a23d 7be4 cc3d 5aba c73d
000003e0: eaf9 1f3d b8c9 cebc 1275 ccbd dbe4 00be
000003f0: 2c0b 97bd b580 c33b 440c 413b d15d 98bd
0.05358187 -0.06631573 -0.0047201766 -0.12861295 0.07118655 -0.07285849 -0.047680892 -0.014957755
-0.08654251 0.01877617 0.016706772 0.027532013 -0.0044349995 0.0014286936 0.10488118 -0.00061988086
-0.032498762 0.10446931 -0.03252923 0.12210755 -0.052327827 0.04869847 0.06670215 0.10222921
0.12073606 0.021748329 0.1288236 -0.021759741 0.0014586591 -0.01536825 -0.032752663 -0.060321502
0.0064922837 0.014743827 -0.06336825 -0.023148067 0.15805614 -0.034888003 0.11405507 -0.055957206
-0.014445925 0.117889054 -0.007163836 0.0072822175 -0.011497524 0.12482596 -0.037925836 -0.14303751
-0.044666406 0.074722655 0.051000427 -0.07544119 0.108220875 0.046573408 -0.01411485 -0.120866634
-0.16185251 -0.076284856 0.03925208 -0.011323187 0.103941016 0.05326632 0.03443233 0.11788429
-0.013671499 0.12174515 -0.012988334 -0.022766184 -0.045971375 0.030722855 0.04838728 0.1218625
0.018631417 0.031629123 0.047440324 -0.017805537 0.0057585663 -0.013912791 0.0809338 -0.010956029
-0.08948872 -0.059494764 -0.13214527 -0.0074140104 0.022305373 -0.077899754 -0.11204578 -0.12860699
0.064591125 0.088008754 0.06305621 -0.056204032 0.03800987 0.0016331321 0.08430148 0.0068502775
-0.014071256 0.1625405 0.17095804 0.14329588 0.16864578 0.12877114 0.107220344 -0.030388359
0.0583686 0.08702284 -0.048278548 -0.05343745 0.05594153 0.037875365 -0.0878859 0.04407174
0.017356576 -0.028999442 -0.0402885 -0.09931716 -0.14326628 -0.127515 -0.17994015 -0.062106516
0.12197623 0.2221025 0.0032376177 0.18275894 0.0060312757 -0.035009813 -0.037880477 0.123960696
0.10737861 0.08548412 -0.0029341585 -0.027095456 0.038832508 -0.06940274 0.13459168 0.07152314
-0.012045901 0.047052056 0.086936206 -0.086288586 -0.08902888 0.041416816 -0.06428843 0.12324624
-0.019199649 0.13150163 0.16356562 -0.007914312 -0.0658798 0.103378184 -0.06428344 -0.006364936
-0.08456807 -0.011921342 -0.10013259 0.07016751 -0.00042032386 -0.08669476 -0.17294931 -0.098184615
-0.13888432 -0.13864921 -0.15264349 -0.039128702 -0.16547126 -0.009558206 -0.06196918 -0.17398396
-0.05275159 -0.10671895 -0.1383052 0.051501613 -0.060263447 0.091566294 -0.046414014 0.056582477
0.118463494 0.06645002 0.08556305 0.039307006 -0.034792725 -0.03842336 0.015327664 0.062063184
0.06799258 -0.01465542 0.048353326 0.06738158 -0.14424123 0.058583457 0.009997569 0.112279
-0.014698344 -0.020117817 0.14621466 -0.004685545 0.11263381 0.15181138 0.10000397 0.05640035
-0.025205905 -0.102678 -0.08654405 0.009319868 -0.10379798 -0.11326712 0.104026526 0.119833276
0.119775645 0.09246877 0.10859662 0.0562372 0.107097544 0.0092685055 0.12587173 0.00055176934
0.075047724 0.09551359 0.09312222 0.07470679 0.058811277 0.104495876 0.018122286 0.021070212
-0.08971147 -0.09406429 -0.08486284 0.08691009 0.09480555 0.025251439 0.0054777716 0.0055990326
0.035516594 0.036349863 0.02758083 -0.0612182 0.02997583 0.046842612 -0.045248672 0.07099289
0.0019832745 -0.02160455 0.031205738 -0.01869603 0.0077577904 0.07921373 0.10004517 0.097523406
0.039056696 -0.025242671 -0.09983267 -0.12587301 -0.07375178 0.005966271 0.0029456774 -0.07439769

gru/MatMul_1/ReadVariableOp/transpose f4 [384, 128]
00000000: c653 18be ec69 69be 3847 66be 4dec 44be
00000010: 31fc c6be 8443 6e3e 0ccc 9a3d 1b42 a23e
00000020: 4e48 d0be 6c1f 073e 1af1 153b 0ac4 26bd
00000030: 360b a93d 1646 d1bd fd78 c7bd d49e 253e
00000040: 5fd8 26be 8264 a43e b615 ebbd 800b e83d
00000050: 85bd 213e 39ea 583e f3a0 13bc 96c7 d63d
00000060: f71e f73d 177f aebd b042 a6be 5d2c b73d
00000070: dbdf aebc de6f 563d fa83 5a3e dadb 313e
00000080: 9388 a2bc e79f 023e 385c 5e3e 34ea 5f3d
00000090: 94cf aebd 6641 c9bd b6fa 79be 3edc a63e
000000a0: b3b2 083d 3d16 23be 50bb c3bd 6b98 3d3e
000000b0: d8ab 3cbd afef 033d 6016 093e 3bc4 8c3e
000000c0: 73b0 523e e622 e5bd 28f6 fabd 2dd8 97bd
000000d0: e247 25be 9871 dbbd 84b8 35bc 616b 0a3c
000000e0: 4612 fabd b75d bfbd c91d 1d3d a99c c7bc
000000f0: 65e5 f7bd bff0 30be c189 273e 5b19 2c3e
00000100: 23bd 163e 7a8b bbbd e2e7 1bbe 7207 403e
00000110: 6411 04be d8fb 533c db82 323e fd33 02be
00000120: 2a51 3d3e 3523 2abe 864f 4e3e d89d 423e
00000130: 442f 2bbd 5e37 0dbd e97a b8bc 64b1 e53d
00000140: 61da f83d 4bca 04be 6d9a 74bc e953 583b
00000150: 82d7 713d 1004 01bd 4ecb dabd 9606 633e
00000160: ea12 363e f420 7dbe a6e1 3cbe 5798 97bd
00000170: 6870 6f3e 76d8 30be b2a1 fbbd 7f80 113e
00000180: fd27 84be 1765 a9bb 06f2 67be 0796 2fbe
00000190: 663b 46be f119 83bd 6215 20be f7ce 423e
000001a0: 0f6a efbd 3a18 453e 309b a93d 8574 963e
000001b0: 46e1 43be 679f 97be 7b9f 70be 8cc2 2b3e
000001c0: 10ab db3d 1a6c 2e3d 3995 adbe d01b e9be
000001d0: 1e9f 793e b5ff 77bd fb3e cf3d d01e e2be
000001e0: 1cba 2cbe ba8a 36be c1ad f5bd d3d2 a03d
000001f0: 4455 a9bb 3f7b abbe 75ab 433e 8cd4 12be
00000200: 7149 c1bd 428f 403d aa42 ccbd 2849 16be
00000210: 22b4 0fbe 6ba6 343d b612 f3bd f86d 7f3e
00000220: 48f9 b4bd b3f8 9c3d 12e7 833d 561d 463d
00000230: 5d52 853d a512 92be 244d 3ebe 9895 e03d
00000240: 2ef3 03be b70f 203e c67d 17be 3a30 0d3e
00000250: a78e 2abc 1de3 2b3e e504 693e a15b 1a3d
00000260: f25a 253c bb9a 9abd 051c 3fbe 0b9a 86bc
00000270: 4a7f e9bd 1b38 c0bd 16ef d23d 2fdc c83d
00000280: e0ac f93d d475 293d cba7 9cbc 35ae 35bc
00000290: 1b4c a8bd 4a87 27bd 2fde f8bd f554 c33d
000002a0: 3f6a 9d3d 414b 23bd cebf 31bd 8ab1 0c3e
000002b0: c4ed 61be da70 d43d faff 2d3e 6d5f 1e3d
000002c0: 0d54 5dbe cd94 b7bd d9d2 97bb c0a9 6e3d
000002d0: 2f3a 9cbe 1bbc dcbd feb3 333d ad57 373d
000002e0: 18ca 343a 5bd2 26be 1208 eb3d c8ad 033c
000002f0: 8fe1 01be b263 fc3d 05b5 123e 0b15 8b3d
00000300: a5e4 a33d c33b f1bd b17b 52bd 9692 a6bc
00000310: 6b6d 00be cc57 0b3e e2e2 0c3e 8cf9 14be
00000320: 45a0 9c3e 5089 7d3c ed54 843d 0433 d63d
00000330: bbcc 9fbd 36b9 52bd e190 03be 1805 8b3e
00000340: a3fa 0fbe 542a fa3d 0c2c 0f3d 00b7 353e
00000350: 06cd aabd 690f d43d 8020 c93d ae17 a3bd
00000360: d963 523c 1078 80be 1770 cfbd d3ad 91bd
00000370: d624 9bbd 1a79 003e 28c2 80bd 3ca4 d13d
00000380: f45c 95bd dcce 90bd 9758 ffbd c641 9cbd
00000390: b41f 68bd ffe5 763e b1ef bd3b b473 8b3e
000003a0: 02a7 b0bd ed22 003e d1a7 a23d b1f4 943d
000003b0: 81db 383e 0060 c7bd 8b74 0ebd c3b4 e73d
000003c0: 03c9 3abe 0027 b5bd aba1 a8bd cf9b 4bbe
000003d0: 871c 953d d21b ce3c 1ee3 8e3e e68d 71bc
000003e0: e317 b4bd 96e6 2fbe 05e7 16be f507 323e
000003f0: 21a7 7bbd 712f 6ebe 0622 443d 0037 b7bd
-0.14875707 -0.22794312 -0.22488105 -0.19230767 -0.38864282 0.23267943 0.0755845 0.3169106
-0.40680164 0.1319558 0.0022879303 -0.0407143 0.082540914 -0.10218446 -0.097398736 0.1617387
-0.16293477 0.3210793 -0.114787504 0.113303185 0.15794952 0.21183099 -0.009010541 0.10487287
0.12066453 -0.08520334 -0.32472754 0.089440085 -0.021346977 0.05235278 0.21339408 0.17369023
-0.019840514 0.1275631 0.21714866 0.054666713 -0.08535686 -0.09826927 -0.24412045 0.32589906
0.033373546 -0.15926452 -0.095572114 0.18515174 -0.04606232 0.032211002 0.13387442 0.27493462
0.20575123 -0.11188297 -0.12253982 -0.07414279 -0.16140702 -0.10715026 -0.011091355 0.008448453
-0.12210517 -0.093440466 0.038358483 -0.024366694 -0.121043004 -0.17279337 0.16361143 0.16806547
0.14720587 -0.091574624 -0.15225175 0.1875284 -0.12897259 0.012938462 0.1743273 -0.12715144
0.18487993 -0.16614993 0.20147523 0.19005525 -0.041793123 -0.03447663 -0.022519546 0.11215475
0.121510275 -0.12967794 -0.014929396 0.0033008999 0.059043415 -0.031498015 -0.106833085 0.22170481
0.17780653 -0.24719602 -0.18445453 -0.074021034 0.23382723 -0.17270073 -0.122867 0.14209174
-0.2581176 -0.0051695216 -0.22650918 -0.17147075 -0.19358596 -0.06401432 -0.15633157 0.19024263
-0.11690151 0.19247523 0.08281553 0.29385772 -0.19128904 -0.29613802 -0.23498337 0.16773432
0.10725987 0.042583562 -0.3390291 -0.45529032 0.24377105 -0.060546596 0.101194344 -0.44164133
-0.1686787 -0.17826357 -0.119960316 0.078527115 -0.005167635 -0.33492467 0.19108374 -0.14338893
-0.09437836 0.04701162 -0.09973653 -0.14676344 -0.14033559 0.04410402 -0.11868803 0.24944293
-0.08836609 0.07664623 0.064405575 0.04836782 0.0650985 -0.2852985 -0.18584114 0.10966033
-0.12885734 0.15630995 -0.14794073 0.13787928 -0.0104099875 0.16785856 0.22755773 0.03768504
0.010092484 -0.07549044 -0.18663032 -0.016430875 -0.114012316 -0.09385701 0.10299508 0.09807622
0.121911764 0.041372135 -0.019122979 -0.0110888975 -0.08217641 -0.040900506 -0.12151753 0.09537689
0.076862805 -0.03986669 -0.04339581 0.13739601 -0.22063357 0.10373087 0.16992179 0.038665224
-0.21614094 -0.08963928 -0.0046332893 0.058267355 -0.3051314 -0.10778066 0.043872826 0.04476135
0.00068965694 -0.16291182 0.11476149 0.008037038 -0.126837 0.12323703 0.14326866 0.06791123
0.08002595 -0.11778977 -0.051387493 -0.02033357 -0.1254174 0.1360771 0.13758424 -0.1454832
0.30591026 0.015474632 0.06461511 0.10458949 -0.07802721 -0.051446162 -0.12848236 0.27152324
-0.14060454 0.12215105 0.034954116 0.1774559 -0.08339886 0.10354502 0.09820652 -0.07963501
0.012841188 -0.250916 -0.10128801 -0.071132325 -0.07575385 0.12546197 -0.06287032 0.10236403
-0.0729312 -0.07070705 -0.12468069 -0.07629733 -0.05667086 0.24111174 0.0057963957 0.27236712
-0.08625604 0.12513323 0.07942165 0.07273234 0.18052484 -0.097351074 -0.034779113 0.113137744
-0.18240742 -0.08845329 -0.08233961 -0.19883655 0.07280832 0.02515975 0.27907652 -0.014743304
-0.087936185 -0.17177805 -0.14736564 0.17385848 -0.061438683 -0.23260285 0.04788401 -0.08946037

gru/MatMul_1_bias f4 [384]
00000000: dd68 533b d548 8a3a 4756 c8b8 3499 373b
00000010: 2f3b 103b cabf f1ba 5525 8b3b 3e6e 6b3b
00000020: 5e9c 333b b432 3e3b 15c6 8bb9 0e65 6db9
00000030: dd70 dc3a 6336 883b 8ffb 023b c55e 523b
00000040: 7918 423b ec44 663a b55e d2bb 0537 fa3b
00000050: c6b5 693b 00a9 5f3b b2fe 8a3b ad3f 15bc
00000060: 7288 10bc de61 80b9 49ab d73a 65e4 0d3b
00000070: f5f1 8f3b 0354 8c3a 8130 8a38 3d73 893b
00000080: 2430 c73a e0bd fe3a a96c 603b a2be 453b
00000090: b8f8 053b 8e6a 203b 11a5 913b ed02 273b
000000a0: 1f4b 4d3b 5aba 983b 8c6b cf3b b134 03b9
000000b0: 5b2c 6439 95f5 973b b094 383b c4da 303a
000000c0: a1c9 813a 79f1 183b 5a92 23bb 098c 57bb
000000d0: f04c 7b3b d299 c33a 442d 853b 31a6 b33b
000000e0: 5892 03ba 5ab3 f93b 8b3f 493b 2798 ad3b
000000f0: 0ea5 3e3b 5a81 a53b 4522 a13a 5699 c83b
00000100: 0525 663b c870 80ba e736 11bb 1b2a 123a
00000110: 3784 b7b9 6712 b33a 5846 043a 8761 26bc
00000120: c65d 00bb fd17 a23b 6f49 ca3b b2fc f63a
00000130: 05c6 ac3b ddb6 ce3a 5681 433b 27b9 3c39
00000140: b510 8f3b d691 473b 7baa bd3b 2594 ad3a
00000150: ed3e 223b 28ca d03a cba5 f3ba bb20 4b3b
00000160: 0259 183b 5ede 5a3a d591 653b d7c4 843a
00000170: be77 563b 86a4 193a 9de2 af3b 86d0 a23a
00000180: 8022 fe3a 2966 173b a310 bd3a 5df8 763b
00000190: 5c79 7b3b 95ac 843a f7a2 423b 28ce e6bb
000001a0: 8e67 423b 8430 993b fafc 243b 8ee4 203b
000001b0: d3ba 813b 9ed1 703b 20a9 be3b f355 a83b
000001c0: 4b2e 8a3b f5f5 003b 1178 8a3b 2d6f 933b
000001d0: 38d3 103b 46e6 943a 5c3b 1f3b cac9 273a
000001e0: 3d6c 223b 6838 a03a 2948 883a f2be 4cb9
000001f0: 7d53 d93a 2240 a63b 7947 203b 2277 1b3b
00000200: 7dba de3a c023 9d3a ddf1 27bb 82ee c039
00000210: a53e 563b 522a a03a d75f 243b a8f8 0cba
00000220: 62a1 9c3a 06a8 623b 79c0 18bb bce3 023a
00000230: 1527 be3a d99d 163b 6d83 20bb f1d2 703b
00000240: ceaf 8e3b 9ff4 fc3a d618 d43b 6848 a8ba
00000250: c13c e83a 450c fd3a 4fdb e73a 8e90 433c
00000260: ac67 d83b b3f6 683a 21ff 2f3a 0d1f f73a
00000270: a8cf 02bb 4afb 1939 ed69 3d3b aa2c 16ba
00000280: 2fd7 03ba 01f0 763b a9f1 343b 80c7 c73a
00000290: 606d c53a 90fe 98ba 314d abba 1963 afba
000002a0: f65d fd3a 8573 e03a 7da4 203b f28f 6d3b
000002b0: 2ee4 1aba c87c a13a 2e45 93b9 67a9 e6b9
000002c0: 6dcf 853b 2413 2e3b 8483 55ba 6b5b 08bb
000002d0: 51f9 863a 3d2a 0f3b 2b4f f9b8 c1dc 9739
000002e0: 2844 033b c721 76ba 2643 4e3b 6e18 d0ba
000002f0: 44a6 be3a bc87 523a a1ba 8a3a b79c ef39
00000300: dd31 a6ba aeda 063b 2601 d23a f07a de3a
00000310: a1a8 393b e8c5 d1ba dc96 7f3b 62a4 343c
00000320: eea6 5139 33cc c93b 8a29 8639 e3a1 523a
00000330: d03e 7eba 5cc3 34bb 9abb 20bb 9a40 203b
00000340: 742d e43a 15f1 a63a 81c9 163a 9313 8d39
00000350: 7e0b 8cb9 9870 ce39 d36c 163b 66b6 9cba
00000360: a178 8aba 6458 07bb a649 4e3a fded 7e3a
00000370: d9ed 103b 833f 9a3a 5dd7 c53a 0670 103b
00000380: e043 92ba b516 053a 04be 813b f93f c5ba
00000390: 58e9 2d39 7f3a 103b eaea 92ba de1b 203c
000003a0: 8045 98b9 2c20 1aba d6d5 1739 022a 043b
000003b0: 58f8 f139 daac 363b 0b37 0aba 8add b039
000003c0: 0ce3 873a 2931 253b 990b 9aba d44d a23a
000003d0: 3be7 56ba 3981 ba38 0ca7 1f3b 8951 7f3b
000003e0: 6e86 bd3a ac00 09bb a4d9 3b3b 86c1 45ba
000003f0: 7455 a63a f3eb 5c3a 3d75 a53a f642 99ba
0.0032258548 0.001055027 -9.5528136e-05 0.00280149 0.0022007932 -0.0018443998 0.0042463937 0.0035923864
0.0027406435 0.002902192 -0.0002665973 -0.00022639727 0.0016818304 0.004156874 0.0019986366 0.0032099944
0.0029616638 0.0008784074 -0.0064199814 0.0076359534 0.0035661324 0.0034127831 0.004241788 -0.00910942
-0.008821594 -0.0002448698 0.0016454245 0.0021651026 0.004392857 0.001070619 6.589387e-05 0.0041946457
0.0015196842 0.0019435249 0.0034244454 0.003017344 0.0020442437 0.0024477574 0.0044447263 0.0025483922
0.0031325293 0.0046608867 0.0063299593 -0.00012512763 0.00021760298 0.00463743 0.0028164797 0.0006746466
0.0009902009 0.0023337288 -0.0024959059 -0.0032889864 0.003834542 0.0014923161 0.004064234 0.005482458
-0.00050190603 0.0076202573 0.003070804 0.005297679 0.002909008 0.0050508203 0.0012293538 0.0061217947
0.003511728 -0.0009799236 -0.0022157968 0.0005575732 -0.00035002988 0.00136621 0.00050458824 -0.010155088
-0.0019587143 0.0049467073 0.0061733047 0.001884362 0.005272629 0.001577105 0.002983173 0.00017998052
0.0043660053 0.0030451915 0.005788145 0.0013243003 0.0024756745 0.0015929388 -0.0018588839 0.003099485
0.0023246412 0.00083491753 0.003502955 0.0010129464 0.003272518 0.0005861003 0.0053675906 0.0012421764
0.0019388944 0.0023101664 0.0014424514 0.0037684657 0.0038371896 0.0010122234 0.0029699185 -0.0070436187
0.0029663774 0.004674973 0.00251752 0.0024550292 0.0039590388 0.0036746035 0.005818501 0.005137199
0.0042169443 0.0019677852 0.004225739 0.004499337 0.0022098552 0.0011360131 0.0024296856 0.00064006133
0.0024783753 0.0012223842 0.0010397482 -0.00019526089 0.0016580668 0.005073563 0.0024456664 0.0023722132
0.0016992834 0.0011988804 -0.002562634 0.00036798796 0.0032691148 0.0012219644 0.002508154 -0.0005377629
0.0011949951 0.0034585013 -0.0023308082 0.00049930415 0.0014507497 0.0022982268 -0.0024492398 0.0036746825
0.0043544536 0.0019298977 0.0064726872 -0.0012838962 0.0017718301 0.0019306025 0.001768926 0.01193632
0.0066041555 0.00088868587 0.00067137374 0.0018853858 -0.0019960199 0.0001468483 0.0028902248 -0.00057287014
-0.0005029318 0.0037679675 0.002760986 0.0015241951 0.0015062504 -0.0011672545 -0.001306927 -0.0013380974
0.0019330371 0.0017124271 0.0024512105 0.0036249128 -0.0005908635 0.0012320513 -0.00028089568 -0.00043995233
0.004083565 0.0026561702 -0.00081449025 -0.0020806442 0.0010297691 0.0021845244 -0.000118879914 0.0002896544
0.0020029638 -0.00093891885 0.003147313 -0.0015876421 0.0014545401 0.000803109 0.0010584184 0.00045702394
-0.0012679655 0.002057712 0.0016022071 0.0016973894 0.002832927 -0.0016004415 0.0038999831 0.01102552
0.0001999398 0.0061583756 0.0002558942 0.0008034987 -0.0009698691 -0.0027582264 -0.0024525882 0.0024452568
0.0017408566 0.0012736643 0.00057520723 0.000269082 -0.00026711443 0.0003937527 0.0022953048 -0.0011956214
-0.0010564515 -0.002065205 0.0007869251 0.0009724794 0.0022114425 0.0011768196 0.001509409 0.0022039427
-0.0011159144 0.0005076931 0.003959419 -0.0015048973 0.00016585493 0.0022007523 -0.0011208926 0.009772269
-0.0002904348 -0.0005879428 0.00014480142 0.002016664 0.00046152133 0.0027874024 -0.0005272484 0.00033734395
0.0010367348 0.0025206304 -0.0011752724 0.0012382814 -0.0008197908 8.893241e-05 0.0024361042 0.003895851
0.0014459619 -0.0020904941 0.002866366 -0.0007543791 0.0012690262 0.0008427493 0.0012623441 -0.001169293

gru/MatMul_bias f4 [384]
00000000: dd68 533b d548 8a3a 4756 c8b8 3499 373b
00000010: 2f3b 103b cabf f1ba 5525 8b3b 3e6e 6b3b
00000020: 5e9c 333b b432 3e3b 15c6 8bb9 0e65 6db9
00000030: dd70 dc3a 6336 883b 8ffb 023b c55e 523b
00000040: 7918 423b ec44 663a b55e d2bb 0537 fa3b
00000050: c6b5 693b 00a9 5f3b b2fe 8a3b ad3f 15bc
00000060: 7288 10bc de61 80b9 49ab d73a 65e4 0d3b
00000070: f5f1 8f3b 0354 8c3a 8130 8a38 3d73 893b
00000080: 2430 c73a e0bd fe3a a96c 603b a2be 453b
00000090: b8f8 053b 8e6a 203b 11a5 913b ed02 273b
000000a0: 1f4b 4d3b 5aba 983b 8c6b cf3b b134 03b9
000000b0: 5b2c 6439 95f5 973b b094 383b c4da 303a
000000c0: a1c9 813a 79f1 183b 5a92 23bb 098c 57bb
000000d0: f04c 7b3b d299 c33a 442d 853b 31a6 b33b
000000e0: 5892 03ba 5ab3 f93b 8b3f 493b 2798 ad3b
000000f0: 0ea5 3e3b 5a81 a53b 4522 a13a 5699 c83b
00000100: 0525 663b c870 80ba e736 11bb 1b2a 123a
00000110: 3784 b7b9 6712 b33a 5846 043a 8761 26bc
00000120: c65d 00bb fd17 a23b 6f49 ca3b b2fc f63a
00000130: 05c6 ac3b ddb6 ce3a 5681 433b 27b9 3c39
00000140: b510 8f3b d691 473b 7baa bd3b 2594 ad3a
00000150: ed3e 223b 28ca d03a cba5 f3ba bb20 4b3b
00000160: 0259 183b 5ede 5a3a d591 653b d7c4 843a
00000170: be77 563b 86a4 193a 9de2 af3b 86d0 a23a
00000180: 8022 fe3a 2966 173b a310 bd3a 5df8 763b
00000190: 5c79 7b3b 95ac 843a f7a2 423b 28ce e6bb
000001a0: 8e67 423b 8430 993b fafc 243b 8ee4 203b
000001b0: d3ba 813b 9ed1 703b 20a9 be3b f355 a83b
000001c0: 4b2e 8a3b f5f5 003b 1178 8a3b 2d6f 933b
000001d0: 38d3 103b 46e6 943a 5c3b 1f3b cac9 273a
000001e0: 3d6c 223b 6838 a03a 2948 883a f2be 4cb9
000001f0: 7d53 d93a 2240 a63b 7947 203b 2277 1b3b
00000200: 7dba de3a c023 9d3a ddf1 27bb 82ee c039
00000210: a53e 563b 522a a03a d75f 243b a8f8 0cba
00000220: 62a1 9c3a 06a8 623b 79c0 18bb bce3 023a
00000230: 1527 be3a d99d 163b 6d83 20bb f1d2 703b
00000240: ceaf 8e3b 9ff4 fc3a d618 d43b 6848 a8ba
00000250: c13c e83a 450c fd3a 4fdb e73a 8e90 433c
00000260: ac67 d83b b3f6 683a 21ff 2f3a 0d1f f73a
00000270: a8cf 02bb 4afb 1939 ed69 3d3b aa2c 16ba
00000280: 2fd7 03ba 01f0 763b a9f1 343b 80c7 c73a
00000290: 606d c53a 90fe 98ba 314d abba 1963 afba
000002a0: f65d fd3a 8573 e03a 7da4 203b f28f 6d3b
000002b0: 2ee4 1aba c87c a13a 2e45 93b9 67a9 e6b9
000002c0: 6dcf 853b 2413 2e3b 8483 55ba 6b5b 08bb
000002d0: 51f9 863a 3d2a 0f3b 2b4f f9b8 c1dc 9739
000002e0: 2844 033b c721 76ba 2643 4e3b 6e18 d0ba
000002f0: 44a6 be3a bc87 523a a1ba 8a3a b79c ef39
00000300: dd31 a6ba aeda 063b 2601 d23a f07a de3a
00000310: a1a8 393b e8c5 d1ba dc96 7f3b 62a4 343c
00000320: eea6 5139 33cc c93b 8a29 8639 e3a1 523a
00000330: d03e 7eba 5cc3 34bb 9abb 20bb 9a40 203b
00000340: 742d e43a 15f1 a63a 81c9 163a 9313 8d39
00000350: 7e0b 8cb9 9870 ce39 d36c 163b 66b6 9cba
00000360: a178 8aba 6458 07bb a649 4e3a fded 7e3a
00000370: d9ed 103b 833f 9a3a 5dd7 c53a 0670 103b
00000380: e043 92ba b516 053a 04be 813b f93f c5ba
00000390: 58e9 2d39 7f3a 103b eaea 92ba de1b 203c
000003a0: 8045 98b9 2c20 1aba d6d5 1739 022a 043b
000003b0: 58f8 f139 daac 363b 0b37 0aba 8add b039
000003c0: 0ce3 873a 2931 253b 990b 9aba d44d a23a
000003d0: 3be7 56ba 3981 ba38 0ca7 1f3b 8951 7f3b
000003e0: 6e86 bd3a ac00 09bb a4d9 3b3b 86c1 45ba
000003f0: 7455 a63a f3eb 5c3a 3d75 a53a f642 99ba
0.0032258548 0.001055027 -9.5528136e-05 0.00280149 0.0022007932 -0.0018443998 0.0042463937 0.0035923864
0.0027406435 0.002902192 -0.0002665973 -0.00022639727 0.0016818304 0.004156874 0.0019986366 0.0032099944
0.0029616638 0.0008784074 -0.0064199814 0.0076359534 0.0035661324 0.0034127831 0.004241788 -0.00910942
-0.008821594 -0.0002448698 0.0016454245 0.0021651026 0.004392857 0.001070619 6.589387e-05 0.0041946457
0.0015196842 0.0019435249 0.0034244454 0.003017344 0.0020442437 0.0024477574 0.0044447263 0.0025483922
0.0031325293 0.0046608867 0.0063299593 -0.00012512763 0.00021760298 0.00463743 0.0028164797 0.0006746466
0.0009902009 0.0023337288 -0.0024959059 -0.0032889864 0.003834542 0.0014923161 0.004064234 0.005482458
-0.00050190603 0.0076202573 0.003070804 0.005297679 0.002909008 0.0050508203 0.0012293538 0.0061217947
0.003511728 -0.0009799236 -0.0022157968 0.0005575732 -0.00035002988 0.00136621 0.00050458824 -0.010155088
-0.0019587143 0.0049467073 0.0061733047 0.001884362 0.005272629 0.001577105 0.002983173 0.00017998052
0.0043660053 0.0030451915 0.005788145 0.0013243003 0.0024756745 0.0015929388 -0.0018588839 0.003099485
0.0023246412 0.00083491753 0.003502955 0.0010129464 0.003272518 0.0005861003 0.0053675906 0.0012421764
0.0019388944 0.0023101664 0.0014424514 0.0037684657 0.0038371896 0.0010122234 0.0029699185 -0.0070436187
0.0029663774 0.004674973 0.00251752 0.0024550292 0.0039590388 0.0036746035 0.005818501 0.005137199
0.0042169443 0.0019677852 0.004225739 0.004499337 0.0022098552 0.0011360131 0.0024296856 0.00064006133
0.0024783753 0.0012223842 0.0010397482 -0.00019526089 0.0016580668 0.005073563 0.0024456664 0.0023722132
0.0016992834 0.0011988804 -0.002562634 0.00036798796 0.0032691148 0.0012219644 0.002508154 -0.0005377629
0.0011949951 0.0034585013 -0.0023308082 0.00049930415 0.0014507497 0.0022982268 -0.0024492398 0.0036746825
0.0043544536 0.0019298977 0.0064726872 -0.0012838962 0.0017718301 0.0019306025 0.001768926 0.01193632
0.0066041555 0.00088868587 0.00067137374 0.0018853858 -0.0019960199 0.0001468483 0.0028902248 -0.00057287014
-0.0005029318 0.0037679675 0.002760986 0.0015241951 0.0015062504 -0.0011672545 -0.001306927 -0.0013380974
0.0019330371 0.0017124271 0.0024512105 0.0036249128 -0.0005908635 0.0012320513 -0.00028089568 -0.00043995233
0.004083565 0.0026561702 -0.00081449025 -0.0020806442 0.0010297691 0.0021845244 -0.000118879914 0.0002896544
0.0020029638 -0.00093891885 0.003147313 -0.0015876421 0.0014545401 0.000803109 0.0010584184 0.00045702394
-0.0012679655 0.002057712 0.0016022071 0.0016973894 0.002832927 -0.0016004415 0.0038999831 0.01102552
0.0001999398 0.0061583756 0.0002558942 0.0008034987 -0.0009698691 -0.0027582264 -0.0024525882 0.0024452568
0.0017408566 0.0012736643 0.00057520723 0.000269082 -0.00026711443 0.0003937527 0.0022953048 -0.0011956214
-0.0010564515 -0.002065205 0.0007869251 0.0009724794 0.0022114425 0.0011768196 0.001509409 0.0022039427
-0.0011159144 0.0005076931 0.003959419 -0.0015048973 0.00016585493 0.0022007523 -0.0011208926 0.009772269
-0.0002904348 -0.0005879428 0.00014480142 0.002016664 0.00046152133 0.0027874024 -0.0005272484 0.00033734395
0.0010367348 0.0025206304 -0.0011752724 0.0012382814 -0.0008197908 8.893241e-05 0.0024361042 0.003895851
0.0014459619 -0.0020904941 0.002866366 -0.0007543791 0.0012690262 0.0008427493 0.0012623441 -0.001169293
