example/models/keyword_detect.tflite (tflite, 75312 bytes, 5 tensors)

sequential/dense/BiasAdd/ReadVariableOp/resource f4 [10]
0	0xbb82ea66	-0.0039952276
1	0xbb92e401	-0.0044827466
2	0xbbbd1144	-0.0057698805
3	0xbb98944a	-0.0046563493
4	0xbb97ac69	-0.004628707
5	0xbb8a98c3	-0.0042296364
6	0xbbe6466f	-0.0070274393
7	0xbbcf25b5	-0.0063216337
8	0xbb926f9a	-0.0044688703
9	0xbba626a6	-0.005070525

sequential/softmax_attention/add/ReadVariableOp/resource f4 [128]
0	0xba560e0e	-0.00081655465
1	0xba3bef12	-0.0007169108
2	0xb8b64f21	-8.693175e-05
3	0xbaa7364f	-0.0012757274
4	0xb8a01e2e	-7.635016e-05
5	0x3ac47cfc	0.0014990862
6	0xbabd225b	-0.0014429794
7	0xb9fe3c16	-0.00048491423
8	0x3a4c9d0f	0.0007805386
9	0xbaa883b9	-0.0012856639
10	0x3a082dfc	0.00051948405
11	0xb8d040cd	-9.930283e-05
12	0x391048c4	0.00013760017
13	0x3b055a1d	0.00203479
14	0x388f041c	6.819537e-05
15	0x3a3427b7	0.0006872373
16	0x3a1dbdff	0.00060173863
17	0x3b2f8f6e	0.0026788372
18	0xb7601ac2	-1.33576705e-05
19	0x3ad1a706	0.0015995211
20	0x3a01b607	0.00049480837
21	0xba4c9a22	-0.000780495
22	0xb9a0ff16	-0.00030707632
23	0xbb1d3de2	-0.0023993184
24	0xba087fe8	-0.0005207048
25	0x39b2b7a5	0.00034087632
26	0xbb0580d4	-0.0020370977
27	0x3a0e769e	0.00054345455
28	0x39e934fd	0.00044480702
29	0xbad8d7ed	-0.0016543843
30	0x3a9e1171	0.0012059641
31	0xba5b7a05	-0.00083723693
32	0xba8f6792	-0.00109409
33	0x3a307dec	0.0006732631
34	0x3aa6f6a1	0.0012738296
35	0x3b7b26e8	0.003832275
36	0xb8f1e5c5	-0.000115345734
37	0xba799b79	-0.00095217634
38	0xba5fde33	-0.0008539885
39	0xba32dde5	-0.0006823226
40	0xba411c48	-0.000736658
41	0x3a93ce6f	0.0011276732
42	0x38b21064	8.4907544e-05
43	0x3aaef2d1	0.0013347511
44	0x3a0b0361	0.00053029327
45	0x39ad2bec	0.00033029856
46	0x3acc4e10	0.0015587229
47	0x3a70ac50	0.000918095
48	0xba9e981f	-0.0012099779
49	0xbaee9206	-0.0018201477
50	0xb9ee0eb3	-0.0004540585
51	0xba44ee38	-0.0007512304
52	0xb9c0ce4f	-0.00036774806
53	0xb4090508	-1.276095e-07
54	0x3948cca5	0.00019149722
55	0xb91ab042	-0.00014752246
56	0x3b4a2f98	0.0030851122
57	0x3a31101a	0.00067544135
58	0x3b99881a	0.004685414
59	0x3a6e8b3a	0.0009099726
60	0x3a111576	0.0005534509
61	0xbad076e4	-0.0015904573
62	0xba068e7b	-0.00051329256
63	0xb9c97dc5	-0.00038431413
64	0xba57b269	-0.00082281843
65	0xbaffcd19	-0.001951608
66	0xbac15ca3	-0.0014752339
67	0x3940f5db	0.00018402135
68	0x39b31f31	0.0003416478
69	0xba6798ab	-0.00088347
70	0x3a3a7e96	0.00071141997
71	0xba7eaeee	-0.00097153976
72	0xbab01e54	-0.0013436773
73	0x378de7ef	1.6916512e-05
74	0x3ac25d92	0.0014828912
75	0xba5ec91d	-0.0008498596
76	0x39251b0b	0.000157457
77	0xb928eb8b	-0.00016109475
78	0x399f9d41	0.00030444007
79	0x3a691d4a	0.0008892609
80	0x3a9dafde	0.0012030562
81	0x3a2ceefa	0.00065968896
82	0x39a1aeaa	0.00030838448
83	0xbac03e15	-0.0014666939
84	0xb91fd241	-0.00015241747
85	0xba521d18	-0.00080151996
86	0xbb3210e1	-0.0027170705
87	0xbae24900	-0.0017264187
88	0xba148021	-0.00056648446
89	0x3a0828cb	0.0005194067
90	0xb973c11c	-0.00023246225
91	0x3a4efce4	0.000789596
92	0xba2f8087	-0.0006694872
93	0x39ac88dc	0.00032908365
94	0xb9dfabb8	-0.00042661815
95	0xb99448ac	-0.00028282905
96	0xbaaeb90a	-0.0013330292
97	0x39ad3c41	0.00033042024
98	0xba475812	-0.0007604371
99	0xba10c94a	-0.00055231585
100	0x3a47926f	0.0007613068
101	0xb9cd628e	-0.00039174076
102	0x3ab10363	0.0013505038
103	0x3a403f0a	0.00073336123
104	0x3a22f262	0.00062159274
105	0x3ac7edfe	0.0015253422
106	0xba3272da	-0.00068072753
107	0x3a2a9074	0.00065065105
108	0xb9525516	-0.00020058858
109	0x3a18ae5d	0.0005824322
110	0xb9956f33	-0.00028502345
111	0xbadeb264	-0.001699042
112	0x3a88106f	0.0010380874
113	0xba30e31d	-0.00067477097
114	0xb9d556ef	-0.00040691296
115	0xb92b48a3	-0.0001633489
116	0xba0baa01	-0.0005327762
117	0x3ac8bfc9	0.0015315945
118	0x3a36ad86	0.0006968606
119	0x3a0604d4	0.0005112414
120	0xba53bb0b	-0.0008076883
121	0x3adfec5f	0.0017083994
122	0xbb007984	-0.001960368
123	0x3994e347	0.00028398095
124	0xba40d2dd	-0.000735564
125	0x3a97706d	0.0011553891
126	0xb9c65e49	-0.0003783575
127	0xba488240	-0.00076488033

sequential/dense/MatMul f4 [10, 128]
0	0x3fa52f0a	1.290498
1	0x3f5e7cf5	0.8690942
2	0x3cd5ae3f	0.026084064
3	0x3ebbbdb2	0.36668164
4	0x3e91b6ee	0.28459877
5	0x3e9bb191	0.3040891
6	0x3fbb2330	1.4620113
7	0xbd8ac7e2	-0.06776406
8	0x3f381a2d	0.7191494
9	0x3eb526a5	0.35381046
10	0x3e5a789b	0.2133507
11	0x3f26a671	0.6509772
12	0x3f532069	0.8247133
13	0xbe5c9edb	-0.21544974
14	0x3cb7b81d	0.02242666
15	0x3e0b4202	0.13599399
16	0xbec1a160	-0.37818432
17	0xbd25c0ab	-0.040466946
18	0x3f3f5d0e	0.74751365
19	0xbd9c4ae5	-0.076314725
20	0xbed63520	-0.41837406
21	0xbcc04eda	-0.0234751
22	0x3ef89f76	0.4855916
23	0xbdac4087	-0.08410745
24	0xbdcd618e	-0.10028373
25	0x3ea20dfb	0.3165129
26	0xbd8df878	-0.06932157
27	0x3e762ac9	0.24039759
28	0xbd8d7d81	-0.069087036
29	0xbd850a54	-0.064961106
30	0x3ddbdd19	0.107355304
31	0xbf2f004e	-0.6835984
32	0x3d874af3	0.06606092
33	0xbeef6aca	-0.4676116
34	0xbd3f7835	-0.046745498
35	0x3d14c00c	0.036315963
36	0xbe573224	-0.21015221
37	0xbc064b3b	-0.008196647
38	0x3db05be7	0.08611279
39	0x3e82ca8d	0.2554516
40	0x3debdec8	0.115171015
41	0xbec74a67	-0.38923952
42	0xbebaff8a	-0.36523086
43	0x3ed54a19	0.41658095
44	0x3f21f483	0.6326372
45	0xbe347618	-0.17623174
46	0x3d6d2616	0.05789765
47	0x3e9a6dd0	0.30161905
48	0x3fc1dbec	1.514524
49	0x3e073cde	0.13206813
50	0x3f07e281	0.5307999
51	0x3ebc5c93	0.3678938
52	0x3e39d7ec	0.18148774
53	0xbeb7eed7	-0.35924408
54	0x3e72978b	0.23690622
55	0x3e86cd43	0.26328477
56	0xbde61aa5	-0.11235551
57	0x3e3513d8	0.17683351
58	0xbe425357	-0.18977104
59	0x3f0639bd	0.5243185
60	0xbf5bd954	-0.8587849
61	0xbead82ac	-0.33888757
62	0x3ecf131a	0.4044426
63	0x3ea923e3	0.33035192
64	0x3f2bf55e	0.67171276
65	0x3ecb75da	0.3973835
66	0x3e18dc16	0.14927706
67	0xbe43db68	-0.19126666
68	0xbed13039	-0.40857103
69	0xbef9e3d0	-0.4880662
70	0x3ea3245d	0.3186368
71	0x3ea7c438	0.3276689
72	0x3e859252	0.26088196
73	0x3e4324d9	0.19057025
74	0xbe9811fa	-0.29701215
75	0xbf41ab60	-0.7565212
76	0xbee47520	-0.4462061
77	0x3e52abeb	0.20573394
78	0x3f1cad9f	0.61202425
79	0x3f4a27e7	0.78967136
80	0xbeb042bf	-0.34425923
81	0x3da8dd76	0.08245365
82	0x3f1d3940	0.6141548
83	0x3e8f0c2f	0.27938983
84	0xbe50bb55	-0.20383961
85	0x3f97f2ec	1.1871009
86	0xbeb7fef0	-0.3593669
87	0x3edabfc8	0.42724442
88	0xbee91aab	-0.4552816
89	0xbf1cf272	-0.6130744
90	0x3eebf95c	0.46088684
91	0x3ee498b8	0.44647765
92	0x3dc00b5b	0.09377166
93	0x3e4eb12d	0.20184775
94	0xbe83005f	-0.2558622
95	0xbf025a57	-0.509191
96	0x3ef9b07e	0.48767465
97	0x3e36806d	0.17822428
98	0xbeb2dd0d	-0.34934273
99	0xbc83131c	-0.016000323
100	0x3f038379	0.51372486
101	0xbe87ca16	-0.26521367
102	0xbd3f9dd2	-0.04678137
103	0x3f1e093f	0.6173286
104	0xbf5551a5	-0.83327705
105	0x3e8a3175	0.26990858
106	0xbeb0aba7	-0.3450596
107	0x3c2635e3	0.0101446835
108	0x3ef1a4e3	0.4719611
109	0xbef16ea2	-0.4715472
110	0x3ea7091b	0.32624134
111	0xbcbe905c	-0.023262195
112	0xbec9445d	-0.3930997
113	0x3c9934e4	0.018701978
114	0x3dad8dac	0.084742874
115	0xbf0f9389	-0.56084496
116	0x3d8146a0	0.06312299
117	0x3f858802	1.0432131
118	0xbe5bc8dc	-0.2146334
119	0x3f96463d	1.1740185
120	0x3ea33673	0.3187748
121	0xbda46961	-0.08027912
122	0xbedf5b27	-0.4362423
123	0x3f12a9a0	0.5729008
124	0x3d637344	0.055529848
125	0xbf3f6c40	-0.7477455
126	0xbe90f291	-0.28310063
127	0xbe9d3ded	-0.30711308
128	0xbf567237	-0.8376803
129	0xbf5894ee	-0.8460225
130	0x3ebf3a08	0.37348962
131	0x3e6ea4b8	0.23305023
132	0x3ee2dde5	0.44309917
133	0x3de9b97d	0.11412332
134	0x3f79c9b4	0.975734
135	0xbe777083	-0.24164014
136	0xbf93a132	-1.1533568
137	0xbe07ac85	-0.13249405
138	0xbe774673	-0.24147968
139	0xbd8f70ae	-0.07003914
140	0xbd9c57fe	-0.07633971
141	0x3f92ad35	1.1459109
142	0x3e143dcd	0.144767
143	0x3f01665d	0.5054682
144	0xbf1972b2	-0.59940636
145	0xbdee22a4	-0.11627701
146	0xbf0e1d26	-0.55513227
147	0xbed765a5	-0.42069736
148	0xbedfe5db	-0.43730053
149	0xbf562c2d	-0.83661157
150	0xbd97d1e4	-0.0741308
151	0xbda03ede	-0.07824491
152	0x3e577b2b	0.21043079
153	0x3f3d8ef2	0.7404624
154	0x3ebc4c09	0.3677676
155	0xbe920853	-0.28521976
156	0xbe890694	-0.2676283
157	0x3f3a2847	0.7271771
158	0xbede33f8	-0.43399024
159	0xbdab8408	-0.08374792
160	0x3cd162d9	0.02555983
161	0xbe773d74	-0.24144536
162	0x3e88cf10	0.26720476
163	0x3f7e2579	0.9927593
164	0x3eb4b9c1	0.3529797
165	0x3e581b8e	0.21104261
166	0x3e5f7153	0.21820574
167	0xbf4e9819	-0.8070083
168	0x3e4c68bd	0.1996183
169	0xbec3aad5	-0.38216272
170	0xbe85bb69	-0.26119545
171	0xbe388a99	-0.18021621
172	0x3e0f1611	0.13973261
173	0xbe8dd17a	-0.2769888
174	0x3e60ed12	0.21965435
175	0x3f4b468b	0.79404515
176	0x3e11bfba	0.14233294
177	0x3f23fb3a	0.64055216
178	0x3ef92b5c	0.48665893
179	0x3ee0db26	0.43917197
180	0x3e4a9df8	0.19786823
181	0xbe5d4a14	-0.2161029
182	0x3f03fdd7	0.51559204
183	0x3ee76ca0	0.45200062
184	0x3df4b579	0.11948676
185	0x3e99ef29	0.30065277
186	0x3ecbb9fe	0.39790338
187	0x3ec39f90	0.38207674
188	0xbe95787e	-0.2919349
189	0xbe48a582	-0.19594386
190	0x3e3f6da7	0.18694173
191	0x3e822c99	0.2542465
192	0xbd25ddce	-0.040494733
193	0x3f6a6f1a	0.9157578
194	0x3dd2b66b	0.102887
195	0xbe67594b	-0.22592656
196	0x3f338b55	0.7013448
197	0x3e78816a	0.24268118
198	0x3f1fcc73	0.6242134
199	0x3e802d6f	0.25034663
200	0xbf509f97	-0.81493515
201	0x3ef4d479	0.47818354
202	0xbf028190	-0.50978947
203	0x3c912604	0.017718323
204	0x3e4559e0	0.19272566
205	0x3f2ee0e1	0.6831189
206	0x3e954598	0.29154658
207	0xbe797930	-0.24362636
208	0x3eb6bc40	0.35690498
209	0x3e81582d	0.25262585
210	0xbde7a1e6	-0.113101766
211	0x3efe582a	0.4967664
212	0xbf892399	-1.0713989
213	0x3eca38d9	0.39496496
214	0xbea73639	-0.32658556
215	0x3eec4c74	0.4615208
216	0x3dcfcac6	0.10146098
217	0xbf2936a6	-0.6609901
218	0x3ea596aa	0.3234151
219	0x3e722b67	0.23649369
220	0x3f2cb8db	0.6746957
221	0xbe226e2b	-0.15862338
222	0x3eaf3a68	0.34224248
223	0x3f08f909	0.53505
224	0x3f282eb4	0.65696263
225	0x3e61299b	0.21988527
226	0x3f169f07	0.58836406
227	0x3ed511f9	0.41615275
228	0xbea6706f	-0.32507655
229	0x3d81607c	0.06317231
230	0x3e4aaefc	0.19793314
231	0x3e97554d	0.29557267
232	0x3f3a347d	0.7273634
233	0x3ea78f6c	0.3272661
234	0xbe07cee8	-0.13262522
235	0xbe68aac9	-0.227214
236	0x3da13d49	0.07873017
237	0x3d1f0cdd	0.038830627
238	0x3f12c40d	0.573304
239	0x3c146b0e	0.009058727
240	0xbd377fea	-0.044799723
241	0x3f216628	0.63046503
242	0xbd506b14	-0.050883368
243	0xbf1da4fa	-0.6157986
244	0x3f1db649	0.6160627
245	0xbe137560	-0.14400244
246	0xbd0a2c11	-0.03373343
247	0xbdff98ec	-0.124803394
248	0x3e801c67	0.2502167
249	0x3f838a15	1.0276514
250	0xbd40ecbd	-0.04710077
251	0xbe52be15	-0.20580323
252	0x3f11e040	0.56982803
253	0x3f0348cb	0.5128295
254	0xbef0a51f	-0.47000977
255	0xbf036a07	-0.5133366

sequential/softmax_attention/MatMul f4 [128, 128]
0	0xbd0dbe73	-0.034605455
1	0x3d8752e6	0.066076085
2	0x3cdc244f	0.026872782
3	0xbde0e9fb	-0.10982128
4	0xbd69d66f	-0.057089265
5	0x3e1b2828	0.15152037
6	0xbd4e8374	-0.050418332
7	0xbd0d2cd8	-0.034466594
8	0x3bdf3690	0.0068119243
9	0x3d413ae9	0.04717532
10	0x3d04fa3c	0.032465205
11	0xbda01d58	-0.07818097
12	0x3daa6ded	0.08321748
13	0x3d4e5379	0.050372574
14	0xbd7e5e09	-0.062101398
15	0xbde9f6b2	-0.114240065
16	0x3ad7783d	0.0016439032
17	0xbd4b86cb	-0.049689095
18	0x3cab7254	0.02092854
19	0x3cef48a6	0.029209446
20	0x3e3d20ed	0.18469591
21	0x3cf2f3fa	0.029657353
22	0xbdd49110	-0.10379231
23	0x3dae727c	0.0851793
24	0x3e19a830	0.15005565
25	0x3cd68139	0.026184665
26	0xbb6ae5d4	-0.0035842555
27	0x3dfdb092	0.12387194
28	0x3e096e2f	0.13420938
29	0x3c92aa09	0.017903345
30	0x3d6b0028	0.057373196
31	0x3d013a0d	0.031549502
32	0xbd94a81c	-0.07258627
33	0x3e3af06f	0.1825578
34	0xbc3cf1a8	-0.011532225
35	0xbd8d9bcd	-0.06914482
36	0xbc97ff5e	-0.018554386
37	0xbe2b9a31	-0.16758038
38	0xbd89c659	-0.06727285
39	0xbc5cf49d	-0.013486055
40	0xbd18a7c8	-0.037269384
41	0x3cf329ba	0.029682983
42	0x3e3e8e88	0.18609059
43	0xbc15b3c4	-0.009137098
44	0x3e4c66f7	0.19961153
45	0x3d8ec762	0.06971623
46	0xbdd0bf2f	-0.101927154
47	0x3d3ce1e3	0.04611386
48	0xbd4c3471	-0.0498547
49	0xbd9f97c4	-0.07792619
50	0xbc7eb4a2	-0.015545996
51	0x3d6354d8	0.055500835
52	0xbcab3d8d	-0.020903373
53	0xbcf51e5d	-0.029921705
54	0xbd191493	-0.037373137
55	0xbd7e9d39	-0.062161658
56	0x3c9a55ee	0.018839803
57	0x3c6c6c82	0.014430167
58	0x3e1ee29a	0.15516129
59	0xbd8b7355	-0.06809107
60	0xbc712d51	-0.014720277
61	0x3d1ef931	0.038811866
62	0x3e306fc3	0.17230134
63	0x3d46767a	0.04845283
64	0xbc140b8d	-0.009035957
65	0x3c2ee6f9	0.010675185
66	0xbc7d6e92	-0.015468257
67	0x3dcbe268	0.09955293
68	0xbdb8f08c	-0.09030256
69	0x3dde7b88	0.108634055
70	0xbda160e9	-0.07879812
71	0xbda4a987	-0.08040147
72	0x3de4a850	0.111649156
73	0xbdf8d305	-0.12149624
74	0xbd8e81f2	-0.06958379
75	0xbd4a9a8a	-0.049463786
76	0x3c1a461e	0.009416131
77	0x3dc1ace3	0.09456804
78	0x3e35eb83	0.17765622
79	0xbd9a1b69	-0.07524759
80	0x3ce4808e	0.02789333
81	0xbd801be7	-0.06255322
82	0x3aecda00	0.001807034
83	0xbd4bb077	-0.049728837
84	0x3dd71b6c	0.10503277
85	0xbd275fc0	-0.0408628
86	0x3ac7b996	0.0015237804
87	0xbde49f75	-0.111632265
88	0xbe2994cb	-0.16560666
89	0x3e09776f	0.13424467
90	0x3d22d58a	0.039754428
91	0xbda9a7ee	-0.08283983
92	0xbdac1810	-0.08403027
93	0xbdbe2624	-0.092846185
94	0x3d8622ad	0.06549583
95	0xbd893295	-0.06699101
96	0x3e555da8	0.20836508
97	0xbda33166	-0.079684064
98	0xbcd42924	-0.025898524
99	0xbd643fa0	-0.05572474
100	0xbde33b31	-0.11095274
101	0xbbd40b02	-0.006471039
102	0xbdd1efe1	-0.102508314
103	0xbdee7852	-0.11644043
104	0xbcb287f3	-0.021793341
105	0xbda33177	-0.07968419
106	0xbc36f355	-0.011166413
107	0xbb9e4fb9	-0.004831281
108	0x3e1a8677	0.15090357
109	0xbccb1776	-0.02479146
110	0x3ba8ac8c	0.0051475223
111	0xbdf6790a	-0.12034805
112	0xbb9403d9	-0.0045170602
113	0xbdeffe3c	-0.11718413
114	0x3e4cb642	0.19991401
115	0xbd13a117	-0.0360423
116	0xbdd863e6	-0.10565929
117	0xbdcf043c	-0.101082295
118	0x3de4e459	0.11176366
119	0xbd6aef60	-0.057357192
120	0x3d3b142b	0.04567353
121	0x3da95e03	0.082698844
122	0xbd5a51a1	-0.053300504
123	0xbc899bc9	-0.016797917
124	0x3d0cc0e1	0.03436363
125	0xbe079da9	-0.13243736
126	0xbdcc1894	-0.099656254
127	0x39a54658	0.00031523663
128	0xbcc1aa37	-0.023640735
129	0xbe499144	-0.1968432
130	0x3e1eeb46	0.15519437
131	0x3e1291d0	0.14313436
132	0x3d891bd0	0.06694758
133	0xbde238c5	-0.11045984
134	0xbd3ea79d	-0.046546567
135	0xbd07d750	-0.033164322
136	0xbe018074	-0.12646657
137	0xbe433187	-0.19061862
138	0xbd9cadce	-0.07650338
139	0x3dc5a87e	0.09651278
140	0xbd8bd62c	-0.068279594
141	0xbdfc14d1	-0.12308658
142	0xbc99713f	-0.018730758
143	0x3dee3a3d	0.11632202
144	0x3c88372f	0.016627876
145	0x3d1a30b6	0.03764411
146	0xbdf85889	-0.12126262
147	0xbd6d162b	-0.05788247
148	0xbe4bb84d	-0.19894524
149	0xbe1eb0a0	-0.15497065
150	0x3e08ce44	0.13359934
151	0x3d2f940d	0.0428658
152	0xbe3185a8	-0.17336142
153	0xbd1194a5	-0.03554215
154	0xbd594f0a	-0.053053893
155	0xbd8b7a18	-0.06810397
156	0xbde8a08f	-0.11358749
157	0xbdace658	-0.08442372
158	0xbd81ce8d	-0.063382246
159	0xbbbb8bb4	-0.005723441
160	0x3cc9d893	0.024639403
161	0xbe2cbb63	-0.16868357
162	0x3e41a61d	0.18911023
163	0x3d19d944	0.037560716
164	0x3e18a5c2	0.14906982
165	0xbd2dd790	-0.042441905
166	0x3cd1be1a	0.025603343
167	0x3c831280	0.016000032
168	0x3d57e2e7	0.052706625
169	0xbd6ea329	-0.05826107
170	0xbe45fc45	-0.19334514
171	0x3dc34d55	0.09536234
172	0xbdb806dd	-0.08985684
173	0xbd751c45	-0.059841413
174	0xbca334a5	-0.019922564
175	0xbd6ee878	-0.05832717
176	0x3cfb9c8a	0.030714292
177	0x3d870bd0	0.0659405
178	0x3ad4db87	0.0016239741
179	0x3d386665	0.045019526
180	0x3df98853	0.12184205
181	0x3d93514b	0.0719324
182	0x3dca4e8d	0.098782636
183	0x3d8f9ca3	0.07012298
184	0xbe018113	-0.12646894
185	0x3d441aa5	0.047876973
186	0xbe653cc6	-0.22386464
187	0x3db5e5bc	0.08881709
188	0xbb77dc91	-0.0037820677
189	0x3dd2d211	0.10293973
190	0xbd529ff3	-0.05142207
191	0x3d054a52	0.03254158
192	0x3d3358c9	0.043785844
193	0x3b1542cb	0.0022775407
194	0x3d85a81d	0.06526206
195	0xbced3cc7	-0.028959645
196	0x3d430457	0.04761156
197	0xbccf7e89	-0.025328891
198	0x3e50f60d	0.20406361
199	0x3dafa23d	0.08575866
200	0x3d9fd6c9	0.07804639
201	0x3d7a4f0f	0.061110552
202	0xbe1278cb	-0.14303891
203	0x3dff22d3	0.12457814
204	0xbcd43fb3	-0.02590928
205	0xbea62802	-0.324524
206	0xbe83d86b	-0.2575105
207	0x3e096cba	0.13420382
208	0x3d67142e	0.05641573
209	0x3ded9638	0.116009176
210	0x3ca918d3	0.02064172
211	0x3d83cb18	0.064352214
212	0xbde80d4b	-0.113306604
213	0x3df12e92	0.11776461
214	0x3b954d4e	0.0045563346
215	0x3dd52662	0.104077116
216	0x3d6dd5ee	0.058065347
217	0xbe3c49cf	-0.1838753
218	0x3cdb6ba6	0.02678473
219	0x3dcaad8f	0.09896385
220	0x3cb7d5bc	0.022440784
221	0x3da3da15	0.0800058
222	0x3d161679	0.036642525
223	0x3e101cb0	0.14073443
224	0xbd815f78	-0.06317037
225	0x3d983868	0.07432634
226	0x3c401e29	0.011725941
227	0x3d6c6b95	0.057719786
228	0xbd90dfcd	-0.070739366
229	0xbe583c7b	-0.21116821
230	0xbdb727db	-0.08943149
231	0x3e01c21d	0.12671705
232	0xbdb84224	-0.0899699
233	0x3db82085	0.089905776
234	0xbcb54a69	-0.022130208
235	0xbdbe5954	-0.09294382
236	0xbd68a388	-0.05679658
237	0xbe1df37b	-0.15424912
238	0x3d375f76	0.044768773
239	0x3ca198fe	0.019726273
240	0x3d44be81	0.04803324
241	0xbdc94cc6	-0.098290965
242	0xbd5aa596	-0.05338057
243	0x3ddf39f4	0.108997256
244	0x3dcbc9d9	0.09950609
245	0x3e46b9ca	0.1940681
246	0xbcf5233f	-0.029924033
247	0x3d8d7c6a	0.06908496
248	0x3d8f0015	0.069824375
249	0xbd8e889c	-0.0695965
250	0x3dc4816c	0.09594998
251	0x3d6f3880	0.058403492
252	0x3b574811	0.0032849351
253	0x3e6ce2e7	0.23133431
254	0x3e067021	0.13128711
255	0x3d944c44	0.07241109

sequential/softmax_attention/MatMul_1 f4 [1, 128]
0	0x3ea1f4a8	0.3163197
1	0xbf8988e7	-1.0744904
2	0xbf9930b9	-1.1967994
3	0x3f95838f	1.1680773
4	0x3f821de0	1.0165367
5	0xbe41c894	-0.1892417
6	0x3e80c2ac	0.25148523
7	0xbf33fd3f	-0.703083
8	0xbf87eaa1	-1.0618478
9	0x3f3c9266	0.73660886
10	0x3f221f44	0.6332896
11	0xbec7532f	-0.38930652
12	0x3ee4f1e9	0.44715813
13	0x3f2975c3	0.66195315
14	0xbde4f1ca	-0.1117893
15	0x3f88a9f3	1.0676864
16	0x3eda3a7c	0.42622745
17	0xbea9236b	-0.33034834
18	0x3fde02fd	1.7344662
19	0xbec38e1f	-0.38194367
20	0xbe6dc754	-0.23220569
21	0xbf49f640	-0.7889137
22	0xbf82c90a	-1.0217602
23	0x3f6c2fc3	0.9226038
24	0xbf66909a	-0.90064394
25	0x3ea11ea0	0.31468678
26	0xbecb0485	-0.39651886
27	0x3f104d0c	0.56367564
28	0x3f363f0e	0.71189964
29	0xbf1b0641	-0.6055642
30	0xbed10b77	-0.4082906
31	0xbf7adb11	-0.9799052
32	0x3f15f3eb	0.58575314
33	0x3f4f7375	0.8103555
34	0x3ed51c57	0.41623184
35	0xc02c530f	-2.6925695
36	0x3f804e01	1.0023805
37	0x3f9613fc	1.1724849
38	0xbf6ef8d9	-0.9334846
39	0x3f9d8982	1.2307589
40	0xbf983819	-1.189212
41	0x3efdbab1	0.49556497
42	0x3fb9db1d	1.4519993
43	0x3f23bc60	0.6395931
44	0xbfa5f2f4	-1.2964768
45	0xbe70fec0	-0.2353468
46	0xbe9a4fb9	-0.3013895
47	0x3eaeadd6	0.34117
48	0x3e388154	0.18018085
49	0xbf0352fa	-0.5129849
50	0xbf8183ac	-1.0118308
51	0xbf08dc90	-0.5346155
52	0x3f964dbb	1.1742471
53	0x3f02ad43	0.51045626
54	0xbee106dc	-0.43950546
55	0xbf51015b	-0.81642693
56	0xbfa3b185	-1.278855
57	0x3f478c49	0.77948433
58	0xbf892d37	-1.0716923
59	0x3f6fa281	0.93607336
60	0x3f6ed3d4	0.93291974
61	0xbf7f05b1	-0.9961806
62	0xbdfe16aa	-0.124066666
63	0xbee4597b	-0.44599518
64	0xbe946379	-0.28982142
65	0xbf33e2e9	-0.7026811
66	0xbec38bf1	-0.38192704
67	0x3f9526f4	1.1652513
68	0x3f074a58	0.52847815
69	0xbf4406f7	-0.7657313
70	0x3f35da53	0.7103626
71	0x3ebd4ca0	0.36972523
72	0xbf18a401	-0.5962525
73	0xbee49190	-0.44642305
74	0xbe6615a0	-0.22469187
75	0xbf58694e	-0.8453568
76	0xbf017109	-0.505631
77	0xbf9d10e6	-1.2270782
78	0xbe8b7fbe	-0.27245897
79	0x3e757584	0.2397061
80	0x3f8ffdf4	1.1249375
81	0xbe54e562	-0.20790628
82	0xbf023886	-0.508675
83	0x3eff07f9	0.4981077
84	0x3f728a1c	0.9474199
85	0xbf7382ee	-0.9512166
86	0x3fb867a5	1.440663
87	0x3e945bae	0.28976196
88	0x3f4f869b	0.81064767
89	0xbf19074d	-0.59776765
90	0xbf9d5958	-1.229289
91	0x3e67ef37	0.22649847
92	0x3ea0fc52	0.31442505
93	0xbf8a0177	-1.0781697
94	0x3f82205e	1.0166128
95	0x3f8386c1	1.0275499
96	0xbefc9071	-0.4932895
97	0x3e1ae846	0.15127668
98	0xbf544f6f	-0.82933706
99	0x3ef8c8be	0.48590654
100	0x3ef9d7e1	0.48797515
101	0x3f7ff987	0.99990124
102	0x3f1cab93	0.611993
103	0x3ec441ed	0.38331547
104	0xbed42234	-0.41432345
105	0xbf290867	-0.66028446
106	0x3e516ba5	0.2045122
107	0x3f17a0b4	0.5922959
108	0xbd7e17f6	-0.06203457
109	0xbeddd39a	-0.43325502
110	0xbf15081f	-0.58215517
111	0x3ee7be45	0.45262352
112	0x3e613014	0.21990997
113	0xbf0d3f81	-0.55175024
114	0x3eb61f2d	0.3557066
115	0x3eb0c566	0.34525603
116	0x3e613c9e	0.2199578
117	0x3f04a1b0	0.51809216
118	0xbf6d8761	-0.92784697
119	0x3e4730e0	0.19452238
120	0x3f182e8d	0.5944603
121	0x3ce07132	0.027397726
122	0x3eb90769	0.36138466
123	0x3f32256c	0.6958835
124	0xbf83b2c9	-1.0288936
125	0xbf73b521	-0.95198256
126	0xbf3e6f82	-0.743889
127	0xbed3f730	-0.41399527
